model/model.pth (torch_old, 16181 bytes, 4 tensors)

linear1.weight f4 [256, 11]
00000000: 58f6 10bd 6244 493e 401e 77be 29fe 0fbe
00000010: 380d 4b3e 0419 07be 6539 93bd 6cd6 053e
00000020: 1e91 163e f368 84be 6aed 40be e052 1d3e
00000030: 0890 163e 8ffb b33d c82f 823e 5cb5 43be
00000040: 573f ebbc 70a6 cabd 2fae 80be 76ae 8dbd
00000050: 66b6 9b3d b8d7 843e f2c1 873e b63e f7bd
00000060: 20ce b8bd 2a40 953e f983 613e e79f 213e
00000070: c838 5cbd c67c c93d e6b4 58bd 2c45 4e3e
00000080: b9ab 9e3c 5293 05bd e03a 04be 8483 30bd
00000090: f429 ef3d 0f15 5e3e b830 4cbd ba19 683e
000000a0: e55a 22be eba2 313e fdc0 8dbe ba1b a73c
000000b0: 2360 adbd e0bb 3a3d 76fc 0dbe 8e50 8a3e
000000c0: 5889 6c3e a9f4 713e 02f6 7abe 9e1a 0f3e
000000d0: 263a e13c 644a 92be e9a7 1cbe 5733 e83d
000000e0: aa66 57be 345f c1bd b95e dc3d 9cfb 39be
000000f0: 52eb 013e 7818 35bd d6e0 20be f133 7abc
00000100: 3041 e03d a4de 54be 7c0a 9bbd ae58 243e
00000110: a3bc 0b3d cb1a 50be 15fa eebd 32de 1ebe
00000120: 5fde 9a3e 6c3e 4bbe b038 3cbe 9287 d4bd
00000130: 7f14 123e 5292 af3d f664 6bbe cbc4 5bbe
00000140: 4812 a63d db1d 933e 3349 63be f6a7 963e
00000150: 63ba 313e abb3 9bbd 16d5 d6bd 9b2a 20bd
00000160: bf23 3ebd bed4 46be f415 bdbd c26d c03e
00000170: 008d 0dbe 7473 703e 747d 493e 6a4c fcbd
00000180: c6b6 3ebe 6f1a 8bbe 60c1 27be 69de bebe
00000190: b079 93bc 43bf 613e af66 943e 54c7 af3d
000001a0: d250 b0bd 56d9 963e 067a 7b3e 11b3 90bd
000001b0: ceae 593e a476 9bbd 3091 053d f89e 393e
000001c0: fdf2 1d3d fb74 9fbd 5c38 983c 1e81 e23d
000001d0: 2a8f f63d f8f6 ef3c a374 9c3e 54fe b63c
000001e0: 9132 0abe 72ce 6a3d 709c a43d 1c94 b13d
000001f0: 290e 4bbe 5c00 7abe 03f0 cb3c 10f1 e1bd
00000200: 3bde 27be ce70 6abe 8f19 703e afcf 3c3e
00000210: 5455 863e 1010 febc fa55 1e3e 213a 18bd
00000220: a380 ba3d 0b0c 633e b01d 2a3e da5b 343e
00000230: c49d e5bb c42f e73c b18f 6bbe 5cf3 6e3e
00000240: 7022 9d3d 3e94 3bbe 84b4 863e c296 293e
00000250: b051 aabd e048 683c ce5d 70be 6307 eebc
00000260: 4ae5 f5bd 6716 69bd 4f63 c93e 20ba 923c
00000270: ed8d 613e a1e2 afbd 605a f03d 37dc 093e
00000280: 31e4 58be e117 b0bd 7e29 02ba cc08 99bd
00000290: c132 ba3d 0997 b23e 5c27 46be 45dc c33c
000002a0: 24c9 8c3d fa4f 733e 3545 433c 07cc 3e3c
000002b0: a1fb 1cbe 062b c33d e9ed ddbd 0c20 6b3e
000002c0: 0fd2 a3bd f834 82be c8e1 a2bd 2cf5 7b3e
000002d0: 02c3 cdbd 26cf 043d 6e34 0dbd 4e56 ac3d
000002e0: cb1f 31be 04fa 1dbe f02a 7b3e 0dd2 923b
000002f0: 5de2 4fbe d2db 9cbe e518 1cbe 4f58 493e
00000300: 6bda 8b3e 6726 6a3e 9b3d b8bd 2049 a7bc
00000310: 6faa 54be 4dbf 06be 5f88 423e 9898 7b3e
00000320: 0cbf 90be 7cfe 1d3e 33ae 2d3d 246d 00be
00000330: 3988 3cbe 79f0 c0bd 1265 85be 4356 6e3d
00000340: aae4 5fbe b852 973e 1adc 22be 1a84 78be
00000350: 0d0c 48bc e275 b93d a1b9 2cbe dd18 8d3d
00000360: df9b 1dbe 1c0d 273c 9716 5fbe b8ae 43bd
00000370: 8572 33bd 8409 443e 9e59 833d 0426 45be
00000380: 666d 083d 1a23 1f3d 8fd0 533e 22cd 2d3e
00000390: 7b63 51bd 50f0 16bc f3bb 853d 544e 13be
000003a0: c649 88be 22e6 77be a8eb 093c 9a58 abbd
000003b0: 8aaf a53d cd34 c5bd 9039 b43e a5f7 b2bd
000003c0: e703 693e 0ef3 8f3c 42a5 a53e 602e 8c3d
000003d0: 481b f9bd 8b39 243d 9e81 a83e 74d5 ba3d
000003e0: 4673 803e c16a 3cbe 538a 8b3e b7a2 903d
000003f0: 381b 49be 950a 8b3e f263 03be ea2b babd
-0.03539118 0.19654992 -0.24132633 -0.14061798 0.19829261 -0.13193136 -0.071886815 0.13070077
0.14703795 -0.2586132 -0.18840566 0.15363646 0.14703381 0.08788215 0.2542708 -0.19112152
-0.028716726 -0.09895027 -0.25132892 -0.069180414 0.07603149 0.2594583 0.26515156 -0.12072508
-0.0902369 0.29150516 0.22023 0.15783654 -0.05376509 0.09838252 -0.052906893 0.20143574
0.019368993 -0.0326112 -0.12913084 -0.043094173 0.11677924 0.2168772 -0.04985115 0.22666064
-0.15854986 0.17347305 -0.276863 0.020398963 -0.08465602 0.045589328 -0.13865837 0.27014583
0.23099267 0.23628487 -0.24507907 0.13974997 0.027493548 -0.2857238 -0.15298428 0.11337917
-0.21035257 -0.09441987 0.107602544 -0.18162388 0.12687424 -0.04421279 -0.15710768 -0.015271173
0.109499335 -0.20788056 -0.07570359 0.16049454 0.034115445 -0.2032272 -0.11668793 -0.15514448
0.3024778 -0.19848031 -0.18381 -0.103774205 0.14265631 0.0857283 -0.22987732 -0.2146179
0.081089556 0.28733715 -0.22195892 0.2942502 0.17356257 -0.07602628 -0.10489862 -0.03910313
-0.04642081 -0.19417092 -0.09232703 0.3758374 -0.13823318 0.23481542 0.19676763 -0.12319262
-0.1862441 -0.27168605 -0.1638236 -0.3727906 -0.018002361 0.22045617 0.2898459 0.08582941
-0.08609165 0.2946269 0.24558267 -0.07065404 0.21258089 -0.07590988 0.032609165 0.18127048
0.03856181 -0.07785984 0.018581562 0.110597834 0.12039025 0.029292569 0.30557737 0.02233807
-0.13495852 0.057325788 0.080376506 0.08670828 -0.1982962 -0.244142 0.02489472 -0.11032307
-0.16393368 -0.22894594 0.2344725 0.184386 0.26236975 -0.031013519 0.15462485 -0.03716481
0.09106567 0.22172563 0.16612887 0.17613164 -0.0070073325 0.028221019 -0.23004033 0.23335022
0.07672584 -0.18318269 0.26309597 0.16561416 -0.08316362 0.014177531 -0.23473284 -0.029056257
-0.12006624 -0.05690613 0.3933358 0.017911017 0.22026797 -0.08588148 0.11735988 0.13462912
-0.21180798 -0.085983045 -0.0004965289 -0.07472381 0.09091712 0.34880856 -0.19350952 0.023908744
0.06874302 0.23760977 0.011918356 0.011645324 -0.15330364 0.095296904 -0.108363934 0.22961444
-0.0799905 -0.25431037 -0.079532206 0.24605244 -0.100469604 0.032424115 -0.03447383 0.08414899
-0.17297284 -0.15427405 0.24528098 0.0044806064 -0.20301194 -0.3063646 -0.15243872 0.19662593
0.27315077 0.22866212 -0.08996125 -0.02042061 -0.2076814 -0.13158913 0.18997334 0.24569929
-0.28270757 0.1542911 0.042402457 -0.12541634 -0.1841134 -0.094208665 -0.26053673 0.058187734
-0.21864572 0.29555297 -0.15904275 -0.24269143 -0.012209904 0.090556875 -0.16867687 0.06889508
-0.15391491 0.010195997 -0.21785961 -0.047774047 -0.043810386 0.19144255 0.064135775 -0.19252783
0.033307455 0.038851835 0.20685028 0.16972783 -0.051120263 -0.009212568 0.06529989 -0.14385349
-0.26618785 -0.24208882 0.008418001 -0.08366509 0.08090122 -0.096292116 0.35200167 -0.08738641
0.22755395 0.017571952 0.32352644 0.06844783 -0.121634066 0.04009394 0.3291139 0.09122744
0.25087947 -0.18400098 0.2725397 0.070622854 -0.1963929 0.2715651 -0.12831095 -0.09090407

linear1.bias f4 [256]
00000000: b09e 333e 6315 70be 2dd7 533e 098c 44be
00000010: 559a 20be e801 83bd 1470 ce3c 613a a63e
00000020: 723f d93d b422 823d e2e4 93bd 8333 133e
00000030: 4cf1 85be f634 1fbe 32d8 633e dd9e 1a3e
00000040: c772 c43d 13c4 f83d d513 d13d b61b fb3d
00000050: 63f5 193e b264 c1bd 7dbb 08be 80dc 3c3d
00000060: 1ebf 2ebe e11f 013e 0952 97be 3c41 1dbd
00000070: 390c 423e 4674 9bbe 284a 95be 98d5 f3bd
00000080: 73ae 47bd afaf 343d bf70 3e3e 60b1 873e
00000090: fd1c e3bd 7ce2 13be 5718 28be 3b21 533e
000000a0: 5d75 373e 38f9 d5bd c3b3 cd3d 051b 863e
000000b0: a2d2 09be 6b88 acbe da86 50bd 29ac 20be
000000c0: b61c bebd d6dc 0a3d b336 3ebe 14ed 59bd
000000d0: fcbd e3bd 21af 5e3e 72a1 84bd e603 8ebd
000000e0: 599f 933e e325 353d f0d2 2abe 5933 7dbe
000000f0: 885d 7abe 3108 9e3d 2755 29be bc84 fa3d
00000100: 5af4 d5bd 4f75 3c3e 8a65 333d 0511 b2bd
00000110: 022a 0b3e 16b1 773d 6232 eb3d 6e2e 003e
00000120: e817 6bbe d1c5 5bbd ec3e e4bd 833a 3bbd
00000130: 6222 abbd daba 8bbe 4613 263e 6f36 f83c
00000140: 505c e13d 1b89 b03d 6148 963e acd0 933d
00000150: 7c5d 95be ee79 8cbd a977 513c a82f 793e
00000160: bd19 98be e988 1cbd f8f5 47bd bbab 85be
00000170: 051b 1f3e 7ff1 fe3d 9421 dcbc 4e46 1bbc
00000180: 6d38 d2bd 9cb2 18be 4e1f 45be 4f1e e5bd
00000190: 9474 c2bd e716 8dbe d256 ad3e 01e8 48bd
000001a0: 082b 063e a8b3 4fbe d9e0 5dbe 68df 3f3e
000001b0: 20ca 6e3e 015c 8cbe db40 4cbd a5c9 143e
000001c0: e55e f5bd da20 5abd 2892 d43d 0be2 903d
000001d0: 9c24 c1bd 6000 3ebe 09a7 5b3e f7fc 7dbe
000001e0: 9e07 5fbe 1110 b53d 2ada 4f3e d905 2ebe
000001f0: 5035 373c 7e76 84bd 18e9 06be a072 1cbc
00000200: e80d 583e 5c7b 7dbe 36ed 933b fb90 7b3e
00000210: 96b8 7f3e d14d 513e b923 3dbe 1043 99be
00000220: b6ef 78be c742 713e 3bf9 273d 00ab 5e3d
00000230: b384 0dbe 39a1 30be 94a6 e03d 9c5d 553e
00000240: c11f 253c 7982 5b3e 5cb6 323e 2805 d63d
00000250: bdd5 993e 2525 7b3e 5997 8cbe 1d51 63bd
00000260: 26b3 72bd d924 003e d4d3 6b3e d387 97be
00000270: 6d3e 753d cb91 69be 273e cc3d ce7a 12be
00000280: c1ff 063e 31b4 843e 59fb 683e 720b 89be
00000290: d5bd 5abe 4af0 8e3a 3b8c e13d ce93 5b3e
000002a0: b895 4e3e c053 63bc ad23 2fbd b003 adbd
000002b0: 8a39 2abe de75 5d3e c9e3 34be e1fc 56bc
000002c0: 049b 8dbe e519 b13c 696d 063e 4bab 5c3e
000002d0: cee9 6f3e c41b 05be 6507 e9bd 6430 05be
000002e0: cffc f2bd a7ca 93be f8fc ea3d 52ae c7bd
000002f0: 8f3a 473e e6ff 51be 0fa1 0a3e b738 f63d
00000300: 1e0f 68be 09b5 233e 19ba dabd 600d 2b3e
00000310: 8742 683d 2674 4a3e 1947 533d 0f52 0abd
00000320: 0fc6 02be 6e30 44be 873f 933d 3189 933e
00000330: 895f 2dbe 3ae1 0ebe ac7a 2cbd 72b7 89be
00000340: 49e9 f2bd ea8e 1e3d 9d0d f4bd b785 a7be
00000350: aa4c 7a3e db80 abbd 9299 41be 2b98 183e
00000360: 937a 88bd 1d87 aa3e d80d d7bd 1560 023e
00000370: 81da 4dbe a2bc 6dbe 06f9 7abd 7613 69be
00000380: aafb 4cbd 578e 23be 27d1 233d dac6 783d
00000390: 727a 473e 9122 ccbb 115d 63be 8fb3 3b3e
000003a0: d571 283d 99a2 673e fda9 2b3c 579a f23d
000003b0: e90c f8bd fc0e 46ba 773a 5b3e 8a8b 853e
000003c0: 4212 a13e 18f7 fcbd d69c c43d c567 95bd
000003d0: 63c6 8e3e 8866 3fbd 3603 633e 0948 10bb
000003e0: fe00 113d a4a1 603e 81f5 763e 9363 8fbe
000003f0: dbc2 08bd 3a32 01bc bc41 ae3e f44a 9bbe
0.17541003 -0.23445658 0.20687552 -0.19194044 -0.15683873 -0.06396848 0.025199927 0.32466415
0.10607804 0.06354275 -0.0722139 0.14375119 -0.26160657 -0.15547547 0.2225044 0.15099664
0.095922045 0.12146773 0.10208861 0.12261145 0.15035014 -0.09443034 -0.13352771 0.046108723
-0.17065093 0.12609817 -0.29554775 -0.03839229 0.18949975 -0.30362147 -0.2915814 -0.11905974
-0.048750352 0.044112857 0.18597697 0.26502514 -0.110895135 -0.14441866 -0.16415535 0.20618145
0.17915864 -0.10447925 0.100440525 0.2619249 -0.13459256 -0.3369783 -0.050909854 -0.15690674
-0.0928282 0.03390201 -0.18575554 -0.05320461 -0.11120221 0.21746494 -0.06476106 -0.06934337
0.2883251 0.044225585 -0.16682029 -0.24726619 -0.24449742 0.07716406 -0.1653639 0.12232348
-0.10446997 0.18404125 0.043798007 -0.086946525 0.13590243 0.060471617 0.11484219 0.12517712
-0.22958338 -0.05365545 -0.11144814 -0.045710098 -0.083561674 -0.27290994 0.1621829 0.030299393
0.11003935 0.08619901 0.29352096 0.072175354 -0.29172885 -0.06859194 0.012784877 0.24334586
-0.29707137 -0.038216505 -0.04881856 -0.26107582 0.15537651 0.124484055 -0.02687148 -0.009477211
-0.102646686 -0.14911884 -0.19250223 -0.111874215 -0.09494892 -0.27556536 0.338553 -0.04904938
0.13102353 -0.20283377 -0.21667804 0.18737566 0.23319292 -0.27413943 -0.04986654 0.14530046
-0.1198099 -0.053253986 0.103794396 0.07074364 -0.09430811 -0.1855483 0.21450438 -0.2480353
-0.2178025 0.08840955 0.20298067 -0.16994418 0.011182144 -0.06467913 -0.13174856 -0.009548813
0.21099055 -0.24754089 0.0045143617 0.24567024 0.24972758 0.20439841 -0.18470658 -0.29933977
-0.24310192 0.2356063 0.04100917 0.054362297 -0.13820152 -0.17249002 0.10969272 0.2083649
0.0100783715 0.2143649 0.17452377 0.10450202 0.30045882 0.24525888 -0.2745922 -0.055497278
-0.05925288 0.12514056 0.23030025 -0.29595813 0.059873987 -0.22809522 0.09972792 -0.14304659
0.131835 0.25918725 0.22752132 -0.26766545 -0.21361478 0.0010905352 0.11013075 0.21443102
0.201743 -0.013874948 -0.042758632 -0.08447969 -0.16623512 0.21626994 -0.17665018 -0.0131218145
-0.2765733 0.021618793 0.13127674 0.21549718 0.23429033 -0.12998873 -0.113783635 -0.13006741
-0.11864626 -0.2886555 0.11474031 -0.09750046 0.19455932 -0.20507774 0.13538001 0.12022536
-0.22662017 0.15987028 -0.106800266 0.16704321 0.05670407 0.1977087 0.051581476 -0.033769663
-0.12770866 -0.191591 0.07189851 0.28815606 -0.16930975 -0.13953105 -0.042109177 -0.2689777
-0.11860902 0.038710512 -0.11916659 -0.32719204 0.24443308 -0.083741866 -0.18906239 0.14901797
-0.06664004 0.33306208 -0.10500687 0.12731965 -0.20102884 -0.23216489 -0.061272644 -0.2276133
-0.050044693 -0.15972267 0.039994385 0.060736515 0.19480303 -0.0062297066 -0.22203471 0.18330215
0.041124184 0.2262062 0.01047754 0.11845844 -0.121118374 -0.00075553334 0.21409021 0.26083022
0.31459242 -0.12351817 0.096002266 -0.07295183 0.27885732 -0.04672864 0.22169194 -0.0022015593
0.035401337 0.21936661 0.2411709 -0.28005657 -0.033388954 -0.00788551 0.34034526 -0.30330622

linear2.weight f4 [3, 256]
00000000: 3ca9 68bc 385f 6139 f6bb 23bd 7cc1 623c
00000010: d910 f6ba 15ee dabc 5bd1 633d efad 57bd
00000020: 0624 b53d 9523 fa3c 4e15 f13b 2d9a 373b
00000030: ae74 fcbc 4be9 53bd 9175 bcbd 97b8 81bd
00000040: e47c 40bb a3f7 3d3d 3b1c 9bbd 1343 63bd
00000050: 915e 6fbc a32c 1e3e 0c81 97bd d4e0 f8bc
00000060: 069d b83d 8da8 4a3d 6869 6f3c 6c55 0a3c
00000070: 2b5f dbbc 4878 1f3d 60aa 133c 85fb 95bb
00000080: 187b e8bc d273 293a 0456 d73c 553b fe3d
00000090: 219b b93c 504f 25bc 7a9f 97bd a1d8 c03c
000000a0: 6fb9 0a3e fba5 a0bd 7f8b a9bc ea45 453e
000000b0: dba6 073d 2d0c 123c 5ea9 03bd 9525 bdbd
000000c0: 806a d53a c12a c43c 91f0 df3c 6350 26bd
000000d0: 4c8d b3bc 1584 0b3d 894a 9e3d 447e 83bd
000000e0: 0bd6 acbd f36f 71bc 2900 e9bc 81bd 88bd
000000f0: e6d9 c23d 95f2 73bd cee7 5a3c afb8 c6bc
00000100: 4901 88bc 81f5 43bd 8a90 c73d f141 753c
00000110: 55fe c3bb 57aa 563d 3316 d4bd 2285 e1bb
00000120: 0a88 743c b424 303d 9c6b 34bd 437f cc3b
00000130: 8da4 89bd a0c7 89bb 1967 4f3d acb5 cd3c
00000140: 834f 1d3d 61b1 fb3c 1e4f 46bb a7b4 14bd
00000150: 4130 4c3c c6a6 ebbc f14f a63c 48dd 0b3c
00000160: 39a4 c93c 544e b0bd 9c42 3d3e f3b6 943c
00000170: adb1 efbc b384 f13d e9d3 25bd f429 8fbc
00000180: b2f8 34bb b3a4 c63d 5a52 163e f28d 55bc
00000190: 4c37 efbc ebe6 23ba 1107 20bd 4307 963c
000001a0: 54ab 3bbd 51c5 b43c e35a 18bc e6d9 07bd
000001b0: fb73 1bbd 301e 92b9 7cd8 923c 69b9 7dbd
000001c0: 3e28 013d 7a84 ac3c ad05 073d e157 9b3c
000001d0: 2d10 e23b 2dae b0bd 76f4 b4bd 3b05 873d
000001e0: c49f 12bd da9e 4d3e 85f9 1abd 38fa c83c
000001f0: 4e69 9c3c ca1e cc3d 0f1b 6abd 96d8 533d
00000200: ef2f d83c 5813 fa3c 4084 aabc 73d2 b93c
00000210: 2be6 b5bb 8d1a 75bd fab8 a73d 57cf fe3c
00000220: 363f 5bbd f466 8ebc 4bf5 0d3d 69ce de3c
00000230: 3c3b 063e e068 e3bc a8e1 65bd 63e7 283d
00000240: f53d bfbd 784a 70b6 9e66 80bd 22a2 b33c
00000250: d4a2 98bc 5283 4b3e b8fd 173c 59dd 203d
00000260: a433 673d ceac 003d 169b 76bd 5168 b83d
00000270: 15c3 d7bb d626 383d d673 f3ba a648 043e
00000280: 4bb9 743d 5adf a43d b7e2 80bd e8b1 963d
00000290: b2b6 913d ed60 663d bcfd 20bd 9a17 c73c
000002a0: 3249 6a3c 5067 5f3e ba9f 1c3d ecf6 ecbb
000002b0: 9c0a 0e3d b651 a4bb 44d6 843d 6c99 13bd
000002c0: f0da 973c 18a7 1e3e 4962 39bc be91 5dbd
000002d0: b712 98bd e049 d83c c019 79bb f160 07bd
000002e0: 8066 ed3b 02b8 63bc c2af 223e 50d7 593d
000002f0: 3617 a5bd 1a52 10bd e0d9 263d e758 3cbd
00000300: b2c7 51bd fe0f 09bd 55ab 4e3b 3b2b c4bd
00000310: a590 873b 1fd6 1abc 23a1 343e cc8f a7bc
00000320: e82d c5bb 5e2f 50bd a0b1 96bc 401c bebd
00000330: a42d 773d 95a0 b33c e769 85bd 4445 103d
00000340: 20b6 273e 5ebb c93c 2510 b33c 00fa 11bc
00000350: a800 a4b7 4651 bd3d 8383 3cbd 1cd7 cd3d
00000360: 9094 b83d c28f 8abd ab56 ecbc ee69 f53d
00000370: 2171 41bc 4ee5 d03c 149f 693d b518 10bd
00000380: 30e9 3b3e b9cd 8b3b 3722 dfbd 904e 603e
00000390: 1728 6abb 1f14 163d 7b2d e7bc f1ce 81bc
000003a0: a042 ddbc 6cc7 823d 95bd e9bd 343b 0d3d
000003b0: 67e3 eabb a774 c4bd 07c3 03bd 0714 b8bd
000003c0: 0070 b0bd 6b96 1f3d 875a 873c 4eb8 143e
000003d0: f1bc 19bd 519b f13d 350c 9a3b be25 143e
000003e0: 59b8 b4bc 1af5 82bd 8e63 b63c 8c86 30bc
000003f0: 3e24 743d 581e 0cbe 7237 74bd b927 c23c
-0.014200505 0.00021493144 -0.039974175 0.013840076 -0.0018773332 -0.026724854 0.05561958 -0.05265611
0.088447616 0.030534545 0.007357276 0.002801548 -0.030817356 -0.051736157 -0.092021115 -0.06334036
-0.0029371316 0.046378743 -0.07573744 -0.05548389 -0.014609949 0.15446715 -0.073976606 -0.030380644
0.09014325 0.04947715 0.014612533 0.008443218 -0.026778778 0.03893307 0.0090127885 -0.0045771026
-0.028379008 0.0006464097 0.026286133 0.124136604 0.022656979 -0.01008971 -0.074034646 0.023540797
0.135473 -0.07844158 -0.0206964 0.19264951 0.03311811 0.008914036 -0.032143943 -0.09235684
0.001628235 0.023946168 0.02733639 -0.040604006 -0.021917962 0.03406151 0.0772906 -0.06420568
-0.08439263 -0.014736163 -0.02844246 -0.0667677 0.09514217 -0.059557516 0.013360931 -0.024257986
-0.016602175 -0.047841553 0.097443655 0.014969335 -0.0059812465 0.052408542 -0.10355797 -0.0068823257
0.014925012 0.043003753 -0.044047937 0.0062407567 -0.06720839 -0.0042047054 0.05063543 0.025111042
0.038405906 0.03072423 -0.003025956 -0.036305096 0.0124626765 -0.028766047 0.02030179 0.008536644
0.02461444 -0.0860869 0.1848244 0.018153643 -0.029259527 0.117928885 -0.040485296 -0.01747606
-0.0027614054 0.09699383 0.14679852 -0.013034331 -0.029201172 -0.0006252366 -0.03906924 0.01831401
-0.045817688 0.022066744 -0.009299013 -0.03316679 -0.037952404 -0.00027869781 0.017925493 -0.0619444
0.03153252 0.021059263 0.032964397 0.018962802 0.006898901 -0.086269714 -0.0883569 0.065927945
-0.035796896 0.20080128 -0.037835617 0.024533376 0.019093182 0.0996681 -0.05715471 0.051720224
0.026390044 0.030526802 -0.020815015 0.022683358 -0.00555112 -0.059839774 0.08189578 0.031104727
-0.05352708 -0.017383076 0.034657758 0.027198033 0.13108534 -0.02775997 -0.056123406 0.041236293
-0.09337989 -3.5806133e-06 -0.06269573 0.021927897 -0.01863233 0.19874313 0.0092768 0.039273594
0.056445733 0.0314148 -0.060206495 0.09004272 -0.006584535 0.04495891 -0.001857395 0.12918338
0.05974702 0.080504134 -0.062932424 0.07358152 0.071149245 0.05624478 -0.03930448 0.024303246
0.014299678 0.21816754 0.038238265 -0.007231584 0.034678087 -0.0050146235 0.064861804 -0.036034986
0.018537015 0.15493429 -0.011314937 -0.05409407 -0.074254446 0.026402414 -0.0038009733 -0.033051435
0.007244885 -0.013898851 0.15887359 0.053183854 -0.08061068 -0.03523455 0.040735126 -0.04598322
-0.051215835 -0.033462517 0.0031535227 -0.09578558 0.004137116 -0.0094504645 0.17639594 -0.02045431
-0.0060174353 -0.050826423 -0.018395245 -0.09282732 0.06034626 0.021927157 -0.0651434 0.035222307
0.16378069 0.024625476 0.021858284 -0.008909702 -1.9550629e-05 0.09244017 -0.046023857 0.100507945
0.09012711 -0.06765701 -0.02884992 0.11983095 -0.011806757 0.025499966 0.057036474 -0.035179812
0.18350673 0.0042664674 -0.10895198 0.21904969 -0.0035729462 0.036640283 -0.028219929 -0.015845748
-0.027009308 0.06385693 -0.11413113 0.03448029 -0.0071682218 -0.09592562 -0.032168414 -0.08988195
-0.08615112 0.03896181 0.016522659 0.14523432 -0.037533704 0.117972024 0.004701162 0.14467523
-0.02206056 -0.06394406 0.022264268 -0.010774266 0.059604876 -0.1368345 -0.05962319 0.023700582

linear2.bias f4 [3]
00000000: cda1 ba3c 5b15 0cbd 820a 7e3d
0.02278223 -0.034200054 0.06202174
